classification/trained_models/cnn.pth (torch, 830416 bytes, 8 tensors)

conv1.weight f4 [16, 1, 3, 3]
000000 56 98 dc 3e ca 28 05 3f 9b 2a 1c 3f cc 8b c5 be
       0.43084973 0.52015364 0.6100251 -0.3858322
000010 09 e4 78 bd 91 0e 0a 3e 35 32 6e be b7 3b 53 bf
       -0.060764346 0.13482119 -0.2326134 -0.8251299
000020 b6 e2 a9 be fe 0a 19 3e ae 17 ac 3e 95 a6 50 be
       -0.3318078 0.149456 0.33611816 -0.20376046
000030 42 d2 55 bd 95 c9 43 be 3e ea 07 bf 72 11 7b be
       -0.05220247 -0.19119866 -0.530918 -0.24518374
000040 98 01 92 3e ad e5 f2 3e 86 da 0a 3f 43 15 cd 3e
       0.2851684 0.47440854 0.5423969 0.40055284
000050 cd 10 b6 3e 5a ae 3a 3f 66 50 3a be c2 47 1f be
       0.35559693 0.7292229 -0.18194732 -0.15554717
000060 26 61 be be a4 0c 21 be d5 7d 0d bf 71 7f a6 3d
       -0.37183493 -0.15727478 -0.5527013 0.08129776
000070 c4 1d 7a bc e9 11 57 3e da a0 98 3e ef 7b 6d 3e
       -0.015265886 0.21002926 0.2981022 0.23191808
000080 97 d3 22 be d8 a2 d6 bd f5 ff f8 3e 0b 33 d2 3e
       -0.15901028 -0.10480279 0.4863278 0.41054568
000090 7f 5f f3 3e d1 54 24 3e a9 7c c5 bc c5 a7 fb 3e
       0.47533795 0.1604798 -0.024107294 0.49151435
0000a0 09 1d a0 3d fd b7 4a bf 6f c8 15 3f 0f 67 ac be
       0.07818038 -0.79186994 0.5850896 -0.33672377
0000b0 1e c9 0b bf ed b6 3c bf 19 6f 75 bc 00 c1 f4 3e
       -0.54603755 -0.7371662 -0.014980101 0.47803497
0000c0 e1 c6 23 bf b2 89 69 bd 75 d3 dd 3e 49 78 16 bf
       -0.6397534 -0.057016082 0.4332539 -0.5877729
0000d0 42 d3 e9 3e cd 7e e1 3e 96 fe 6b be 00 3b 52 be
       0.4566899 0.44042054 -0.23046336 -0.20530319
0000e0 04 52 89 3d 48 68 19 3d eb 75 8e be a6 e0 16 be
       0.06705096 0.037452966 -0.2782434 -0.14734134
0000f0 56 8a 7f be 7c b2 ba 3d 14 0e e1 3d b1 9e ee bd
       -0.24955115 0.091160744 0.10989013 -0.11651362
000100 bc 8b 5c 3e ba fd 49 3e 5f 79 b2 be af 51 43 bf
       0.2153768 0.19725695 -0.34858224 -0.76296514
000110 13 9c ea be 16 2c 4c bd be 8a 2a 3d 1e 90 26 3c
       -0.458222 -0.04984673 0.04163622 0.010166196
000120 01 49 d8 3e f8 f7 bb bc fd 8e 8d 3d c4 60 27 bf
       0.42243198 -0.02294539 0.069120385 -0.6538203
000130 31 dd 0a be f0 76 d4 3e 01 9f ef be 4d e7 a6 be
       -0.1356094 0.41496992 -0.46800998 -0.32598343
000140 d1 28 3f 3f 52 5a f7 bc 1d f1 c1 3a 82 a6 31 bf
       0.74671656 -0.030194435 0.0014796589 -0.69394696
000150 39 40 8c bd c8 c4 3c 3f 85 db 16 3f e8 5f 1d be
       -0.06848187 0.73737764 0.5892871 -0.15368617
000160 eb 43 af be 72 7c cf 3c c4 f5 d5 3c 74 af 4d be
       -0.34231505 0.025327895 0.026118167 -0.20086461
000170 f3 e9 7e bf 70 ce 2d 3e 02 5c 4e 3e a5 aa f7 be
       -0.9957573 0.16973281 0.20152286 -0.4837238
000180 25 bb de 3e 23 ed 7a 3e 10 00 17 3f dd 05 82 be
       0.43502155 0.24504523 0.5898447 -0.25395098
000190 e7 62 f2 bd d0 67 92 3e f4 84 99 be 70 8b 2b 3f
       -0.118352704 0.28594828 -0.29984248 0.6700964
0001a0 bc ff 4a 3c 6d 97 89 3e 40 8c 8e 3e c0 44 03 bf
       0.012390073 0.2687334 0.27841377 -0.5127678
0001b0 12 00 f7 3e 11 d2 16 3f 3b 79 67 3e c6 3a b8 be
       0.4824224 0.58914286 0.2260484 -0.3598234
0001c0 2d fa 49 be 44 cf 04 bf 13 72 bb be e6 3e 26 bf
       -0.1972434 -0.5187876 -0.3661047 -0.64939725
0001d0 98 6c 15 be f8 c3 ea be e6 47 7b bf db db 42 bf
       -0.14592206 -0.45852637 -0.98156583 -0.7611672
0001e0 64 b9 d8 bd 66 e7 a2 3e a7 ca 10 3f cb 09 16 3f
       -0.105822355 0.31817168 0.5655922 0.5860869
0001f0 3a 76 dd 3e e7 17 88 3e a5 fe 1b bd af fd f9 bd
       0.43254262 0.26580736 -0.038084645 -0.122065894
000200 93 1c 8d 3e 6b 9b 06 3d ba d1 a7 3e 4b 29 b3 be
       0.27560863 0.032863062 0.32777196 -0.34992442
000210 54 93 e4 bd 16 16 4a 3e 9d 3d a6 bd a3 34 00 3f
       -0.11160913 0.19734988 -0.081172206 0.5008032
000220 69 6b e6 be 79 03 2b bf e3 c5 e9 3e 32 bc df 3e
       -0.45003822 -0.66802174 0.45658788 0.4369827
000230 c0 8c 0e 3e 35 1f 89 bd a5 26 bd 3d 48 76 37 3e
       0.1392088 -0.066954054 0.092358865 0.17916214

conv1.bias f4 [16]
000000 f7 92 32 3c ea c9 99 bd a7 37 4b bd 74 cc d1 be
       0.010899297 -0.07509215 -0.04961362 -0.40976298
000010 07 0b b1 bd 46 6a 13 3e 40 41 9a be 44 20 cd 3e
       -0.086446814 0.14396009 -0.30127907 0.4006368
000020 1a a3 3a be 55 f3 4f bc 00 da 26 bd f7 26 6d be
       -0.18226281 -0.012692292 -0.040735245 -0.23159395
000030 b8 c5 da 3d 6a e5 38 3c 40 43 7e be 41 55 47 be
       0.10682243 0.011285165 -0.24830341 -0.19466116

conv2.weight f4 [32, 16, 3, 3]
000000 37 9d 40 3d 75 ce cb bd de db 16 bf a7 04 73 3e
       0.04702493 -0.09951488 -0.5892924 0.23732243
000010 bc a2 a7 3c 9e 8a 10 3e 64 4e 2a 3e 1e 3e a8 3d
       0.02046334 0.14115378 0.16631466 0.08214973
000020 5a fb a6 3d 12 98 31 bc 69 f9 94 3e 35 07 63 3e
       0.0815341 -0.010839479 0.29096535 0.22170718
000030 9f bd 4f be 59 b4 9a 3e 57 8c 2f 3e 2d b4 64 be
       -0.20287178 0.3021572 0.17143379 -0.22334357
000040 9e 79 84 be 93 a5 9a 3e b6 24 1a 3e 62 e0 c1 3d
       -0.25874037 0.30204448 0.15053067 0.09466626
000050 07 21 69 be e5 92 d3 3c 4a a9 23 3e 95 94 31 3e
       -0.22766505 0.02582688 0.15982547 0.17341836
000060 42 2f 22 be 62 13 23 3d c8 a1 29 3d b8 f6 26 3e
       -0.1583834 0.039813407 0.041414052 0.16305053
000070 66 ae bc 3d aa db 9a 3d db 62 c3 bb 5f a1 7c bd
       0.09212951 0.07561429 -0.005962712 -0.061677333
000080 30 53 60 3d bf 6f 0b bf d2 6d 9e be 0d 36 6f 3d
       0.054766834 -0.54467386 -0.3094316 0.058401156
000090 57 ab 95 be db 08 23 be 24 61 e9 be 55 6b 54 be
       -0.29232284 -0.15921347 -0.45581925 -0.20744069
0000a0 14 b6 2b be 79 b9 77 be 36 1c b3 be ba bf d4 be
       -0.16768676 -0.24191846 -0.3498246 -0.41552526
0000b0 26 ea 27 be 18 00 79 be 8a 91 f7 be 3d cb 7c bd
       -0.16397914 -0.24316442 -0.48353225 -0.06171726
0000c0 0f f9 83 be c6 3c 04 be 3f 3a 79 bd 4a 49 96 bc
       -0.25775954 -0.12913808 -0.060846563 -0.018345494
0000d0 a8 1c e6 bd 30 13 2a 3e bb 0f 04 bd aa ff 1c 3d
       -0.112359345 0.16608882 -0.032241564 0.038329758
0000e0 38 30 4b 3c 6c 29 81 3c fe 98 4d bd 98 3b 1b bd
       0.012401633 0.015766822 -0.050194733 -0.03789863
0000f0 c3 85 4f bd ac c3 98 bd 30 d7 e4 bc 48 21 83 be
       -0.050664674 -0.074591964 -0.02793464 -0.2561133
000100 b2 c4 6b be 8b c0 cb 3c 66 58 42 3d de 43 d8 3c
       -0.23024252 0.024872085 0.047447585 0.02639955
000110 ff 2b dc bc 04 cb 44 3e 3a 6a bb 3d ca 1d 39 bd
       -0.026876448 0.1921807 0.091511205 -0.045194425
000120 39 fc 83 bd 04 a2 9e bc 18 ec 07 be f5 22 a4 3d
       -0.06444592 -0.019364364 -0.13273656 0.0801448
000130 8e 8b 03 bd 9c f8 3f 3d e1 b9 c4 3d 9d 01 f9 bd
       -0.03211551 0.04686795 0.09605766 -0.12158511
000140 d3 25 f1 3d 66 74 ad 3d a4 d3 f3 3d 22 ef 30 bd
       0.117747925 0.08469467 0.119056016 -0.043196805
000150 fa 1e c6 bd 2b 7e b8 3d 2a 3e 4a 3e 40 25 f9 bd
       -0.09673877 0.0900844 0.19750276 -0.12165308
000160 d5 ba c7 bc 15 58 18 3d a5 20 98 3d fd 2c 0c 3e
       -0.02438108 0.037193377 0.074281015 0.13689037
000170 08 db 1e 3e 83 1b 96 bd 1d ff 8f 3c 94 f3 e1 bd
       0.15513241 -0.07329466 0.017577702 -0.11032787
000180 1e 3d 2c be 8d d0 3d bf a6 14 d7 be 81 c0 0b be
       -0.1682019 -0.7414635 -0.4200794 -0.13647653
000190 c6 87 e6 bc 96 84 90 3d d0 d0 48 be a8 7d 8c bd
       -0.028140914 0.07056539 -0.19610906 -0.068599045
0001a0 c2 4d 54 3e 75 74 c9 be 6a 26 11 be 42 ff 54 bd
       0.20732787 -0.39346662 -0.1417481 -0.052001245
0001b0 8a a8 b9 bc 8d 7c f8 bd 82 f1 ba bd 66 84 c5 bb
       -0.022663374 -0.12133131 -0.09128095 -0.006027746
0001c0 9c c1 8d 3b cf 28 5a 3e e3 cb df 3d 51 31 b3 3d
       0.0043260586 0.2130463 0.1092756 0.08749641
0001d0 bd a8 38 3e 11 8a 2a 3d 0c 32 3a 3e e6 67 b5 3e
       0.18033119 0.041635577 0.18183154 0.3543083
0001e0 62 2a 97 be 2e 07 80 3d 05 c4 c0 3d a3 54 d3 be
       -0.29524523 0.062513694 0.09412388 -0.4127551
0001f0 ff c8 b1 be 8e fd 0a be 78 c9 fc 3d 6e 3b 08 3e
       -0.3472366 -0.13573286 0.123431146 0.1330392
000200 26 cf bc 3c 72 cd 3e bd b1 37 da 3d b2 f0 df bc
       0.023047995 -0.046582647 0.106551535 -0.027336452
000210 fe 9e a4 be 65 f5 bd bd cf 52 9e bd 98 1b 83 3e
       -0.3215255 -0.09275321 -0.07730638 0.2560699
000220 3c ce 45 3e 23 99 62 3d f1 f8 b5 3d 61 d5 a1 3d
       0.19316953 0.055321824 0.088853724 0.07902027
000230 83 d7 62 3d 70 32 88 be 02 0f 0f be c1 29 89 be
       0.05538131 -0.2660098 -0.13970569 -0.26789668
000240 6e 66 58 bd 26 4b d7 bc 7c 82 bf bd eb d7 a5 bd
       -0.05283206 -0.02628095 -0.0935106 -0.08097824
000250 92 71 ab ba 5c 03 14 bc 59 89 bb bd 3a bb c3 bd
       -0.0013080111 -0.009034004 -0.09157056 -0.09557195
000260 9b 5d 10 3d d1 93 06 3d ad da 7a bd be 22 f0 bc
       0.03524552 0.032855812 -0.0612437 -0.029313441
000270 bc 34 9c bd f8 7b 25 bc 05 1a 5c bc 3c 36 24 3d
       -0.07627246 -0.010100357 -0.013433938 0.040090784
000280 d0 fa 0c 3d f6 5b 9c 3d 22 c1 df bc df 2f 8f 3c
       0.03441888 0.07634728 -0.027313773 0.017478881
000290 66 de 3b bd 99 b9 3b 3d b9 4e 36 bd 8c 0c b8 3c
       -0.045866393 0.045831297 -0.04450867 0.02246692
0002a0 0c ef b6 bd c5 49 b3 bd 52 37 a2 bd 35 25 c3 bc
       -0.08932313 -0.08754305 -0.07920708 -0.023821453
0002b0 47 dc 14 bd d3 d9 ba 3c b6 35 41 bd 7a 70 82 3b
       -0.036342885 0.022808945 -0.047170363 0.0039806934
0002c0 e7 71 93 bd 5e 72 87 3d 71 11 55 3d a6 55 72 bd
       -0.071994595 0.06613611 0.052018587 -0.059163712
0002d0 a5 5b 88 3d 93 89 96 bb a5 f3 9c bc ed 9a 62 bd
       0.06658105 -0.004594037 -0.019159148 -0.05532353
0002e0 97 eb 8a bb b1 56 d5 bc db 42 8f 3d 39 dc 4c 3d
       -0.0042395103 -0.026042314 0.069951735 0.05001471
0002f0 d5 44 b7 3c fe 4d b9 bd 4e 24 86 3c 8f e9 12 3d
       0.022371689 -0.09048079 0.016374733 0.03586727
000300 a6 9b 0a bd 5b 0d cc bd 6d 59 1e bc cf 8c ab bd
       -0.033839844 -0.09963485 -0.009664875 -0.083764665
000310 ef c3 33 bd be 69 cf 3c aa 7f a9 bd 39 88 9d 3d
       -0.04388803 0.025318976 -0.08276303 0.07691998
000320 86 5e c0 bc fe e4 5e bd 2b cd 73 bd 84 48 97 bd
       -0.023482572 -0.054417603 -0.059521835 -0.07386878
000330 b0 d4 9a 3b 76 74 10 3d c8 3c 53 bd fa c4 d6 bc
       0.0047250614 0.035267316 -0.051571637 -0.026216973
000340 7d c8 0b 3d a0 06 f4 bc cd bb 0a 3c 1d bc 86 bd
       0.034126747 -0.029788315 0.008467627 -0.065788485
000350 e8 69 ae bd 9e fd 30 bc 08 21 2f bd e4 a6 18 bc
       -0.08516294 -0.010802655 -0.04275611 -0.009317134
000360 ce d5 df 3c d9 4c a4 3c bf 61 2b 3d ec 20 a5 3c
       0.02732363 0.020056175 0.041841265 0.0201573
000370 c7 a5 94 3c 9f 33 8a bd 46 b0 e6 3c 23 69 db bb
       0.018145455 -0.06748127 0.028160226 -0.006695883
000380 eb 3a 15 3c c0 10 5f bd 2c fc e3 3c e0 af 82 bd
       0.009108285 -0.054459333 0.027830206 -0.06381202
000390 19 29 40 3d 9a 64 59 3c 7d a8 a9 bd 8f 5d 09 3d
       0.046914194 0.013268614 -0.0828409 0.03353649
0003a0 c1 ff 89 ba 73 2b dd bc 51 0e 70 bc a6 82 55 3d
       -0.0010528491 -0.026998257 -0.014651851 0.05212655
0003b0 4c a9 d2 bd 0f e9 ab bd 9c 72 a3 3c 80 57 0e bd
       -0.10286197 -0.08394062 0.019952111 -0.034751415
0003c0 7e 38 43 bc b5 e6 37 bc e7 e4 ba bd 96 0a 52 bd
       -0.011915324 -0.011224438 -0.09125691 -0.051279627
0003d0 e5 fe 46 3d c8 42 ab bd be 3f 5b 3d 01 de 0f bd
       0.04858293 -0.08362347 0.053527586 -0.03512383
0003e0 90 ab 8b bd e1 6d 5d bd 1a da ac bd 8e ae a4 3c
       -0.06819832 -0.054059867 -0.08440037 0.020102765
0003f0 c8 c6 73 bd c6 89 30 3c 0e 15 63 3d 27 99 07 3d
       -0.059515744 0.010775035 0.05544 0.03310504

conv2.bias f4 [32]
000000 e2 3e 1e be 1a f0 8d bd 22 c3 fb bc e8 52 1f be
       -0.15453675 -0.06930561 -0.030732695 -0.1555897
000010 05 3c 4e bd 8d 7f 41 bd c9 f9 ba bd 56 27 0c be
       -0.050350208 -0.047240783 -0.09129674 -0.1368688
000020 17 f5 0e be 2f ba e0 bb a1 da b8 bd 3a 3b 57 bd
       -0.13960682 -0.0068581323 -0.09026075 -0.052546717
000030 86 20 36 bd 56 02 68 be 39 54 da 3d 61 6c 39 be
       -0.04446461 -0.22657141 0.106605954 -0.1810775
000040 d4 73 3e be 60 d9 f3 bc bc db 4d be 61 2c 13 be
       -0.18598872 -0.029766738 -0.20103353 -0.14372398
000050 32 52 0e be 55 5d e0 bc 3d 70 d2 bd 72 5f f3 bd
       -0.13898543 -0.027388254 -0.10275314 -0.11883439
000060 8a db 6d bd 51 e3 2f be 42 ed c8 bd 26 70 bb bd
       -0.058070697 -0.17176558 -0.09810878 -0.0915225
000070 33 d7 1d be 11 a2 37 be 46 83 3f be 7c f8 34 be
       -0.15414123 -0.17932917 -0.1870242 -0.17672914

fc1.weight f4 [128, 1568]
000000 cf 1c 55 bc 87 15 b7 bd ea 46 16 be 07 68 ac bd
       -0.013007357 -0.08939653 -0.14675489 -0.08418279
000010 91 2e b8 3d e7 a4 7b 3c 96 d9 2c 3d 86 72 9f 3e
       0.08993257 0.01535914 0.042199694 0.31142062
000020 ef 59 4e 3d a8 18 ef 3c c6 58 de 3c e1 b7 44 be
       0.050378736 0.029186562 0.02714194 -0.19210769
000030 09 eb a0 3e 90 37 16 be 5a e2 34 3e ca 72 b1 3d
       0.31429318 -0.14669633 0.17664471 0.086644724
000040 91 6d 85 bc d2 35 1d be cf 86 17 3c 1e 54 93 bd
       -0.016287597 -0.15352562 0.0092484495 -0.071937785
000050 83 db 06 3e 1d 7b 5b 3e 7f d4 32 3e 2f a4 a7 bd
       0.13169675 0.21433683 0.17463873 -0.081856124
000060 c9 d6 84 be 19 3e 92 3c 7e 60 bc bd 0d 8d 0d be
       -0.25945118 0.017851876 -0.09198092 -0.13823338
000070 12 46 52 be 4a 0f 93 3b b4 73 65 3d b8 2e 31 3e
       -0.20534542 0.0044879066 0.056018546 0.17302978
000080 d8 85 d1 3d c0 6f c0 be be 3e c3 be 9d c4 db 3d
       0.10230607 -0.37585258 -0.38133806 0.107308604
000090 48 79 89 3d eb 6f a8 3d ad 8c e5 bd 9b 68 90 bd
       0.06712586 0.08224472 -0.112084724 -0.07051202
0000a0 1e 0c 17 be 96 77 65 be c6 35 b3 bd 52 63 44 be
       -0.14750716 -0.224089 -0.08750491 -0.19178513
0000b0 86 1f 14 3d e6 8c c1 3c dc 33 81 bd ef fa 22 3d
       0.036162876 0.023626756 -0.063087195 0.03979009
0000c0 f9 79 b3 3d 84 3d 51 3c b6 06 ca 3c 28 37 2d 3c
       0.08763499 0.012771014 0.024661403 0.010572232
0000d0 7d eb 79 bc 00 3a 95 3c 55 10 be bc 1f a2 91 bc
       -0.015253899 0.018216133 -0.023201147 -0.0177775
0000e0 4e 0a 52 bc 91 c9 9f bc 6c a2 b9 3c 5c fe 7d bc
       -0.01281984 -0.019505294 0.022660457 -0.0155025385
0000f0 d6 ac bc 3c 74 ee 9d 3c e5 43 89 3c b0 2c 4c bb
       0.023031633 0.019278742 0.016756007 -0.0031154566
000100 20 90 07 3c e8 f8 04 3c 9e fc 70 bc 11 98 88 bc
       0.008274108 0.0081159845 -0.014708666 -0.016674073
000110 6c 5a 7d bc b3 2b c8 bc 20 d6 ca 3b 9e 2a 71 bc
       -0.015463453 -0.0244349 0.0061900765 -0.014719633
000120 3c d0 55 3c 56 4d b3 bc 32 e7 11 bc 90 4e 17 bc
       0.013050135 -0.021887463 -0.008905219 -0.009235039
000130 10 0f b6 3c 8d 30 54 bc cd fa 88 bc c8 4d cd bc
       0.02222398 -0.0129510285 -0.016721154 -0.025061503
000140 90 2e b2 3a 88 46 41 3b a8 e5 5f 3c e8 38 07 3b
       0.0013594199 0.0029491503 0.013665594 0.0020633284
000150 20 3b 7f 3a 7e 2e a2 3c 2c 06 15 3c 1e 15 1b bc
       0.00097362883 0.01979756 0.00909571 -0.009465484
000160 fe d3 0a 3c a4 eb 8c 3c 56 eb 85 3c 18 3c da 3b
       0.008473394 0.017202206 0.016347568 0.0066599958
000170 68 40 83 bc 93 2b a8 3b 5b 16 2a bc f7 85 75 3c
       -0.016021922 0.0051321476 -0.0103813065 0.014985553
000180 cc 20 4c bb f5 b5 b2 bb 46 30 0d ba f1 bb 10 3d
       -0.0031147478 -0.00545382 -0.00053859164 0.035335485
000190 51 51 61 3d 97 40 90 bd a1 d4 b4 3d 0f 26 91 bc
       0.05500919 -0.070435695 0.08829618 -0.017718343
0001a0 e9 aa ca bc 00 ef d8 3d 72 48 31 3d 3f db 83 be
       -0.0247397 0.10592461 0.04328198 -0.2575321
0001b0 64 e2 52 3e be 89 87 3d ab d8 61 3d 70 ef d4 3d
       0.20594174 0.06618069 0.05513827 0.103972316
0001c0 f7 26 51 3e 9e dd 06 3d 57 b0 a8 3c a5 19 08 3d
       0.2042502 0.032926194 0.020591898 0.03322758
0001d0 4e f0 8a 3d 54 55 1f bd 35 6a cd bd ab f6 1b be
       0.06784116 -0.038899735 -0.10030023 -0.15230815
0001e0 84 cb d5 3d 8e 50 a8 be 85 f7 c1 bd 4a 3d d4 3c
       0.10439208 -0.32873958 -0.09471039 0.025908131
0001f0 18 48 a5 3e cd 5e 58 3e 3c 96 09 be 95 32 ad 3e
       0.32281566 0.21129914 -0.13436216 0.33827654
000200 7b 4f 82 3e ab c7 a4 3d 83 1c 14 bc d7 ba 87 bd
       0.25451264 0.08045896 -0.009040001 -0.06627434
000210 45 68 bb be 35 61 3d be 0f 10 c0 bd b3 e5 62 be
       -0.3660299 -0.18494113 -0.09378063 -0.22157936
000220 d9 73 81 be f7 63 8d be f3 f2 a5 bd 98 db 65 be
       -0.25283697 -0.2761533 -0.081029795 -0.2244705
000230 3f 79 e0 3d 6c a8 df 3d dc 87 bd bd c2 98 74 bc
       0.10960626 0.10920796 -0.09254429 -0.014928998
000240 4b 4e b2 3d c4 af 3c bd 37 f1 56 3d d9 7e 07 bd
       0.087063394 -0.04606606 0.052476134 -0.033079956
000250 aa 5d 8a be e0 77 81 be fb c7 08 3d 45 10 91 be
       -0.27024585 -0.2528677 0.03339384 -0.28332725
000260 8a 59 c0 be f2 5f 15 be 9c 68 9c 3e c8 0d 4c 3d
       -0.37568313 -0.14587381 0.3054856 0.04981783
000270 f5 12 ba bd d6 e6 45 3d 3b d5 ef bc e6 95 bc 3d
       -0.09085647 0.048315845 -0.02927648 0.09208278
000280 97 a6 53 3e dc 62 b6 bc 94 ee 3a 3e 67 ba 81 3d
       0.20669018 -0.022263937 0.18255073 0.063343816
000290 d7 a7 01 3e 64 97 59 3e a0 69 96 3e 10 a8 43 3e
       0.12661682 0.21249157 0.2937746 0.1910708
0002a0 a8 01 d6 bc 63 8c 52 3e cb 85 84 be 6d 0f 34 3e
       -0.026123837 0.20561366 -0.25883326 0.1758401
0002b0 34 9a c3 3e e5 38 c7 be 15 b9 37 bd 2d 17 89 bd
       0.38203585 -0.38910595 -0.044854242 -0.066938736
0002c0 54 3b 1f be 6f 4c ee bc b1 79 a3 3d 76 a0 1c be
       -0.15549976 -0.02908918 0.07982195 -0.15295586
0002d0 f2 09 c0 be 74 5f 48 3d 4c 08 38 3e 60 09 04 bd
       -0.37507588 0.048919156 0.17971915 -0.032235503
0002e0 7b 5b 08 3d 7f 77 f9 3d 4b 9e fc 3c bb 46 0c be
       0.033290368 0.12180995 0.030837199 -0.13698857
0002f0 7d 50 2c 3d c5 43 5c be ac c6 b6 3d 8b 06 25 bc
       0.042068947 -0.21510227 0.089246124 -0.010072361
000300 88 62 25 3e 49 36 db 3d f0 e7 02 3d d7 29 68 3d
       0.16150868 0.107037134 0.031959474 0.056680527
000310 d0 41 3b 3b 37 24 02 3d 68 eb 51 bb 18 54 b8 3a
       0.0028573163 0.03177282 -0.0032031182 0.0014063148
000320 00 be 83 3c 34 9e 96 bb e3 2e b4 bc ca a7 81 3c
       0.01608181 -0.004596496 -0.021995014 0.015827078
000330 a2 e3 61 bc c8 a6 d4 3c 0c de 97 3c cc a3 94 3b
       -0.013787182 0.025958434 0.018538497 0.0045361277
000340 78 17 83 bb c8 5a 8c 3c ca 88 83 3c 5e 27 e3 3c
       -0.0040006004 0.017133132 0.016056437 0.027728733
000350 ba 3e be 3c 96 fb c4 bc a0 0f ba 3c 3d 65 2b bc
       0.02322327 -0.024045747 0.022712529 -0.010461149
000360 e9 5e 94 bc 88 ec f6 3b 79 ee ca bc a8 30 31 bb
       -0.018111663 0.007535521 -0.024771916 -0.0027037058
000370 04 c1 e2 bb 1a d8 8c bc 72 9a c0 3c 60 d8 32 ba
       -0.006919982 -0.017192889 0.023511145 -0.00068224035
000380 8a 39 94 bb e2 12 bd 3b 12 03 1a bd e7 0c e7 3c
       -0.0045234608 0.0057700733 -0.037600584 0.028204395
000390 80 e5 ae 39 2a d4 c9 3c 3c fb 5a 3c b1 6f 68 bc
       0.00033358857 0.0246373 0.013365563 -0.014186786
0003a0 80 96 49 ba 00 ee 91 3c f8 29 7d 3c 7c 6c 4e 3c
       -0.0007689968 0.017813683 0.015451901 0.012599107
0003b0 29 5f ae bc 80 fd 17 bc 05 fd 9d bc f7 4c 6b 3c
       -0.02128561 -0.009276748 -0.019285688 0.014361612
0003c0 67 4a 61 3c c0 96 2b 3c 38 55 ba bb fc ac ce bc
       0.013750649 0.010472953 -0.0056864284 -0.02522897
0003d0 ba 30 9e 3c 0e f2 0a 3e 14 81 b1 bd 8f 3f 3a 3e
       0.019310344 0.13568899 -0.08667198 0.18188308
0003e0 1c 37 36 3e b3 f4 2c be ca 41 bf 3d 21 72 e4 3d
       0.1779446 -0.1689022 0.0933872 0.11154581
0003f0 65 b3 e2 3d ba 71 84 bd 4e 18 12 bc 0d 4e 41 bd
       0.11069373 -0.06467004 -0.0089169275 -0.047193576

fc1.bias f4 [128]
000000 b0 ee 69 bd 2b 45 4f 3c 14 e4 58 3b 77 c9 1b 3d
       -0.057112396 0.012650768 0.003309493 0.03803393
000010 58 3b c8 bd 4a a5 86 bc 0c d1 89 bd a1 3a e0 3b
       -0.09776944 -0.016436238 -0.06729326 0.0068429266
000020 be a8 18 3d 16 c9 8b bc a3 ce 67 3d a0 df 57 bb
       0.0372703 -0.017063659 0.05659355 -0.0032939687
000030 0d 1b 23 ba f3 3c b4 ba 4b f7 6c bd 94 44 83 bc
       -0.00062219874 -0.0013751074 -0.057853024 -0.016023912
000040 c7 30 4f bb c0 11 9d bd c3 a8 80 3d eb 20 62 3c
       -0.0031614767 -0.07669401 0.06282189 0.013801794
000050 43 fa 70 3c 87 60 b7 bb aa b8 13 bc 05 76 94 bd
       0.014708105 -0.0055962238 -0.009016195 -0.07249073
000060 b1 c1 1c bd bf f0 9a bd d6 1f 2e bd f6 24 b0 3b
       -0.038270656 -0.0756545 -0.04251083 0.0053755
000070 bb 1c 51 3b 69 cc 5c bd 66 34 68 bd 10 d7 b5 bd
       0.0031907994 -0.05390588 -0.056690596 -0.088789105
000080 af 5a 0d bc 95 09 6e 3d 92 2c 7f 3c a0 a6 ec bc
       -0.008627578 0.058114607 0.015574591 -0.028888047
000090 bd ee 13 bc c8 fa 18 3e f5 b3 4d 3c ee 81 1c 3d
       -0.009029088 0.14939415 0.012555112 0.038209848
0000a0 40 54 93 3c fd ec 83 bc 40 7b 03 bd 8e 43 25 3c
       0.01798451 -0.016104216 -0.032099962 0.010086907
0000b0 c7 c3 b2 bd 2a 7b d1 bc b1 1d d1 bc b2 6c 9c bc
       -0.08728748 -0.025571425 -0.025526853 -0.019094799
0000c0 c7 7e 82 bd 9a dc 9c bc 66 00 b8 3c 09 e8 da 3c
       -0.06371837 -0.01914816 0.022461127 0.026721971
0000d0 e3 6d 2f bd ae c4 f3 bd 6e bc e1 bc 94 f6 13 be
       -0.042829406 -0.11902748 -0.02755567 -0.14449531
0000e0 32 18 7b bb e5 de c0 bc 06 a2 4a bc 31 83 4a 3c
       -0.0038313982 -0.023543784 -0.012367731 0.01236038
0000f0 8d 13 76 3c 01 22 c4 bb 5a 38 a9 3c dd 59 e5 bc
       0.01501931 -0.005985499 0.020656753 -0.027996952
000100 ad 12 c6 bc ba f0 57 bd b4 ca 57 3d 09 f1 b0 bc
       -0.024178827 -0.05271981 0.052683547 -0.02159931
000110 32 ec 06 bd f7 89 e3 bd 60 ff b6 bd 3b 38 c4 bc
       -0.032940097 -0.11110299 -0.08935428 -0.023952594
000120 67 af 1a bc 77 64 41 bd 74 ca d0 3b 45 d2 8c 3c
       -0.009441233 -0.04721495 0.0063717905 0.017190108
000130 ba cb 63 ba 64 84 11 bd 6c 88 44 bd 78 e7 2c bd
       -0.00086897204 -0.03552665 -0.047981665 -0.042212933
000140 e0 9c e7 bd 90 03 68 3c dc 5b fc ba 80 47 41 bb
       -0.113092184 0.014161006 -0.001925345 -0.002949208
000150 ad 8b 2a bb cd 13 18 3d ad bf 86 bd 7a 4e 81 bd
       -0.0026023195 0.03712826 -0.06579528 -0.06313796
000160 d5 92 47 bc 3c 62 8d bc c9 fc 04 bd e8 72 b6 bd
       -0.012181004 -0.017258756 -0.032467637 -0.089086354
000170 94 2b a6 bb 65 db 5e bc 3c 9e cd bd db 76 31 bc
       -0.005071113 -0.013602112 -0.100399464 -0.01083156
000180 5a 66 f7 bc f1 c8 96 bb b4 fc 35 3c 1e cc 27 be
       -0.030200172 -0.004601591 0.011107612 -0.16386458
000190 b1 3f 09 bd a7 ed 82 bc 7d c7 35 3c 1c a5 96 ba
       -0.033508006 -0.015982462 0.011094925 -0.0011493298
0001a0 7d fb 83 bb 19 0c e2 bd 94 dd fd bd e3 48 a3 3c
       -0.0040277825 -0.11037464 -0.12395778 0.019932216
0001b0 1e ed 7b bd 08 bf 76 bb ef 34 53 bc c8 ec 4a bd
       -0.06150543 -0.0037650485 -0.012891038 -0.04954222
0001c0 b8 1f 01 be f9 64 49 bd 2c ad c9 bc b1 00 cc bc
       -0.12609756 -0.04916856 -0.024618708 -0.024902673
0001d0 1c 20 d6 bd b6 3b 60 bc 06 2c 92 bd a0 e0 8d bc
       -0.10455343 -0.013686111 -0.07137303 -0.017319024
0001e0 f8 d8 eb bc 8d 21 01 3d 23 18 e5 bc 4c 6e e0 bd
       -0.028789982 0.031526137 -0.02796561 -0.109585375
0001f0 24 44 93 bd 3b f9 fd bd 82 de a2 bc 82 81 14 bd
       -0.07190731 -0.124010526 -0.01988149 -0.03625632

fc2.weight f4 [10, 128]
000000 b4 5b 10 be 21 26 d9 3c 77 39 20 3a 87 9d 3e 3e
       -0.14097482 0.02650744 0.00061120786 0.1861478
000010 d2 b0 fb bd cb f3 10 3d f4 d9 6d 3e 2c 6e f9 3b
       -0.12289585 0.03538875 0.23227674 0.0076120105
000020 78 78 73 be 69 d1 70 bd 12 ca 19 3e 7d 1d 50 bb
       -0.23776424 -0.05879346 0.1501849 -0.0031755858
000030 e5 7c 2b 3e bc 7c 6c 3d 49 7c 8f be fd 6f 3e bd
       0.16746862 0.057736143 -0.2802451 -0.04649352
000040 2b 04 79 3d 94 24 dd be 68 3a 16 3e a4 73 84 3e
       0.06079499 -0.4319197 0.14670718 0.25869477
000050 99 dc 1e 3e 48 42 63 38 07 4f 21 3d 79 2f 02 3e
       0.15513839 5.4182747e-05 0.039382007 0.12713422
000060 dd e0 91 3b 54 1b 84 be 7c 8c bb bd 36 eb 68 3c
       0.0044518546 -0.258021 -0.09157655 0.014216235
000070 eb c4 86 be 46 f4 0d 3d d6 9f a6 be c3 1e 1f 3a
       -0.2632211 0.034656785 -0.3254382 0.00060699525
000080 5e 4e 47 be 57 48 f0 be be c2 17 bd 2e 22 53 3e
       -0.19463488 -0.4693019 -0.037050955 0.20618507
000090 e5 b4 38 3d 86 90 15 3e fe 73 92 3d b8 d3 f9 be
       0.04509439 0.14605913 0.0715103 -0.4879434
0000a0 35 9c 0d 3c 23 a8 78 3d 37 f4 8e be a8 97 50 bd
       0.0086432 0.060707223 -0.27920696 -0.05092588
0000b0 03 c4 e0 bd ac 86 e3 3c 98 dc 6e 3d 37 5c 61 bd
       -0.10974886 0.027774177 0.058315843 -0.055019584
0000c0 be 9f 8a 3d a3 85 1c bd 97 63 95 be a7 73 9f bb
       0.0676875 -0.038213383 -0.29177544 -0.0048660818
0000d0 5e 1b 05 3e c7 c0 e6 be d8 d7 94 bd ea 93 9e be
       0.12998721 -0.45068952 -0.072677314 -0.30972224
0000e0 b8 52 58 3e 4d b1 ed 3b d3 27 30 3d 65 3d d9 be
       0.21125305 0.007253802 0.04300673 -0.42429653
0000f0 e2 65 1b 3e b0 81 a9 3d aa ca 25 3e 78 46 a0 bc
       0.15175584 0.08276689 0.16190591 -0.019564852
000100 f3 7e 9c 3b 22 21 d6 bc d1 3a 40 3c 66 3a cf be
       0.0047758757 -0.026138846 0.011732773 -0.40474242
000110 05 ad a2 bd e7 7f 68 3d 57 e5 eb be c8 9c 21 3d
       -0.07943157 0.056762602 -0.4607341 0.03945616
000120 ac e0 ac bc 8d ee 00 be 29 f1 dc bc b0 d3 9c bd
       -0.021103226 -0.12591 -0.026970463 -0.07657564
000130 86 b2 aa ba 62 31 36 3e 11 90 01 3e 28 da 40 be
       -0.0013023175 0.17792276 0.12652613 -0.1883322
000140 da d1 e1 be 01 36 a1 bd 84 bb 49 be 1a 96 d5 3b
       -0.44105417 -0.078716286 -0.19700438 0.0065181376
000150 3b 20 3b 3e ed 70 f0 3c 55 3d 02 be d4 be 89 3d
       0.18274014 0.029350722 -0.12718709 0.06725851
000160 09 2c 9c 3d 53 d6 df bc 8d ca 14 3d 64 f3 28 bc
       0.076255865 -0.027323877 0.03632598 -0.010311935
000170 9b 64 d0 be aa 8d 16 be 93 82 41 be d3 ff 26 3d
       -0.40701756 -0.14702478 -0.18897466 0.040771317
000180 c0 c4 ee 3c d6 c8 8f bd 4f c3 f5 3c 05 3f d9 be
       0.029146552 -0.07020728 0.030000357 -0.42430893
000190 f1 bc 00 bf 56 53 a0 3d 8d 42 2b 3d a4 ff 6b 3d
       -0.502883 0.07828395 0.041811515 0.057616845
0001a0 e0 08 ac bd 89 a2 1a 3d 04 92 b4 be 40 33 44 3e
       -0.0840013 0.03775266 -0.3526765 0.19160175
0001b0 66 e2 cf be e2 2c 42 bd 8c c9 86 3d 22 b9 d8 3d
       -0.40602416 -0.047406085 0.06581411 0.10582186
0001c0 61 59 b3 be 40 26 15 3e 04 dd 9f 3d b3 79 7d 3c
       -0.35029128 0.14565372 0.07805827 0.01547091
0001d0 43 4d 31 be b3 fd 36 bd e2 dc bd 3d 26 9b 04 3d
       -0.1731463 -0.04467554 0.09270646 0.032374524
0001e0 0a e9 9e be f5 16 4f 3e 33 9c 8f 3d fa 11 bf 3d
       -0.3103717 0.20223601 0.070122145 0.09329601
0001f0 9a ba 9c be ac b9 ef be 9b 5a 8a bd 76 10 b8 be
       -0.30611116 -0.46821344 -0.06755563 -0.3595006
000200 60 0a 44 3e 69 cb 89 3d 1b ad ea bc 75 ec 9e be
       0.19144583 0.067282505 -0.028646996 -0.31039777
000210 53 f0 06 3d a3 c3 98 3d 0c 73 c1 be c9 2f 88 bd
       0.032944035 0.0745919 -0.37783086 -0.06649739
000220 11 93 7d 3e 14 87 f7 bc 7b 4a 3a 3e 8e 97 58 3d
       0.24763133 -0.030215777 0.18192475 0.05287891
000230 e2 b9 40 bf 51 62 d8 bc c8 ab 94 3d 29 08 87 3c
       -0.75283635 -0.026414068 0.07259327 0.016483383
000240 ee a2 4c 3c 70 c3 c9 3d ac bf 22 3e 28 ab 3b 3e
       0.012490017 0.0985173 0.1589343 0.1832701
000250 5f fc 50 3d 75 37 ac 3d 20 46 8f bd 33 09 ec 3d
       0.05102193 0.08409015 -0.06995797 0.11525192
000260 28 f3 b5 bc cb 94 1d 3e 37 f4 d4 be 4b d9 84 bc
       -0.022210672 0.15388791 -0.4159257 -0.016216895
000270 5d 89 43 3e 88 c8 1f be b8 3d 11 3e dc 6e 2d bd
       0.19095369 -0.1560384 0.141837 -0.042342052
000280 23 ea 0a 3e f1 0c 6d 3e bb a2 86 bd 80 56 20 bf
       0.13565879 0.23149468 -0.06574007 -0.6263199
000290 e1 e1 8f 3d 31 44 20 3e 1a 4b 64 3d 44 2c 03 3e
       0.07025505 0.15651013 0.055735685 0.12809855
0002a0 2f 09 2c 3e 04 52 8f bd 4d 76 7a 3d b7 2a 16 bd
       0.16800378 -0.06998065 0.061147977 -0.03666183
0002b0 6c 2d 21 bf b7 ed 4e bd 4c 37 44 3d 1b d7 c5 3c
       -0.62959933 -0.05051967 0.047904298 0.024150422
0002c0 b6 8c f1 3c 7b e4 ce bc ba d4 ec 3d 1a b1 2e 3d
       0.029486042 -0.025255432 0.11564012 0.042649366
0002d0 f1 90 1d bf 85 35 8e be 34 42 8e bd 27 d7 20 bf
       -0.6154929 -0.27775207 -0.06946221 -0.62828296
0002e0 c8 94 26 bf 49 88 93 3d de d0 9a bd d1 ce 6a 3e
       -0.6507077 0.07203729 -0.075593695 0.22930457
0002f0 de 5b 9c 3d 23 3a 67 3d 7c d8 e9 be 50 46 06 3d
       0.0763471 0.056451928 -0.45672977 0.0327819
000300 e9 d4 51 bd 01 c5 04 3c cd 13 cb be a8 12 12 3e
       -0.051228438 0.00810361 -0.39663544 0.1426493
000310 c5 e8 15 bd 22 08 ab be 4d 65 ef be 88 87 b8 be
       -0.03659894 -0.33404642 -0.46756974 -0.36040902
000320 d0 cd 5f bd dc 78 e3 bd e8 f1 6e bc 34 d8 fd 3c
       -0.054639637 -0.111070365 -0.014584042 0.030986883
000330 03 23 7c 3c 15 70 3f be 5a 0e c1 be ad b9 11 3e
       0.015389207 -0.186951 -0.37706262 0.14230986
000340 7d 16 8d be d2 0e 47 3c f8 c8 73 3e 9f 5b 4e bd
       -0.2755622 0.0121495295 0.23807132 -0.050380345
000350 23 18 dd be 2a bd 0e 3e ae 33 5b 3d 6d a9 07 be
       -0.43182477 0.13939348 0.053516082 -0.13248225
000360 1c f2 83 bd 58 39 b8 bc 36 f4 0c bd 5e f6 90 be
       -0.06442663 -0.022488281 -0.034412585 -0.28312963
000370 02 3b 2a 3e 72 6f 61 be a7 24 f9 be a9 35 b4 bb
       0.16624072 -0.2201517 -0.48660776 -0.005499561
000380 6f b3 8a 3d 7a 82 90 bc 3b 15 9f 3d b5 cd 0c bf
       0.067725055 -0.017640341 0.07767721 -0.55001384
000390 7d cb b0 3d 01 bc 2c bc 79 36 8a 3c bf c9 34 bd
       0.08632562 -0.0105428705 0.016871678 -0.044137713
0003a0 f7 3c a6 3b aa 39 5e 3c 56 21 cd be cf 6d 20 3e
       0.0050731855 0.013563553 -0.40064496 0.15666889
0003b0 c6 d1 a7 3d 95 77 29 3c a6 20 1f bd 00 a7 f2 be
       0.08194308 0.010343452 -0.038849495 -0.47393036
0003c0 95 ab bd be 28 ba 1f bf e6 70 22 bc 8c 6a 92 3c
       -0.3704497 -0.62393427 -0.009914612 0.017873071
0003d0 65 ae 93 3c b4 e5 9a bd af eb 4e 3d d0 5b 66 bb
       0.018027494 -0.07563344 0.050517734 -0.003514994
0003e0 c3 73 4d 3c 93 02 01 3e ee 26 87 bd fc b0 6c bd
       0.012539807 0.12598638 -0.06599222 -0.057785973
0003f0 8b c3 f8 bd 84 27 82 be bf 70 84 bd 42 8e a8 be
       -0.12146672 -0.25420773 -0.06466817 -0.32921034

fc2.bias f4 [10]
000000 59 fe 25 3e a1 e3 6c 3e c4 a9 3a bd e4 cd aa 3c
       0.16210307 0.23133709 -0.045572057 0.02085013
000010 c4 b3 2d bd b6 88 61 bd 68 b9 ba 3d a7 65 d4 3d
       -0.042407766 -0.05506202 0.09117395 0.10370951
000020 4b c3 ef bd 37 cb 48 3c
       -0.11707171 0.012255481
