classification/trained_models/mlp.pth (torch, 942880 bytes, 6 tensors)

fc1.weight f4 [256, 784]
00000000: 925f 2bbc 46e1 b23c 08c5 e03b c8a1 c7bc
00000010: f360 023d 982c e1bc 1c53 c7bc dcf9 133c
00000020: d01f af3b 7a4d db3c 3ecb 8abc 9a40 dd3c
00000030: 909c 2a3c 3324 11bd fc12 5b3c c06d 96ba
00000040: 3cd1 dfbc fa6d f9bc 8cb3 a23c 5ee5 c13c
00000050: 7613 ee3c 2abe 36bc e212 a23c 70da 71bb
00000060: 8a7c e13c 3a1e fabc 9324 12bd c0f8 3f3a
00000070: 8025 ca3c 2784 0cbd c09b 703c 8a84 b7bc
00000080: c768 b6bb 8b82 9b3c 6bd5 e93d 50f1 be3d
00000090: bb04 1e3e de1f 2a3e fd96 543e 06a1 ad3e
000000a0: 47b2 383e 803f 583e f231 a4bd 2852 c4bd
000000b0: 1f5c a8bd fdf7 8a3d 4752 113e 97c7 303e
000000c0: 2665 3a3e 7cd7 313e 1ca8 cb3c 78bb 4c3c
000000d0: f041 6abb d802 dfbc 287e 603c 606b fb3a
000000e0: 7866 bfbb baa1 ec3c b6eb d33c 00c4 79bb
000000f0: 506f 973d c9a7 043e 4b28 283e eea2 703e
00000100: 7d56 303e 7854 453e ea48 be3d 368a 9b3d
00000110: a097 cfbd e646 1dbe 8915 86bd 834e ca3d
00000120: 408d da3d 10aa 3b3e 0f78 4f3e 2587 6a3e
00000130: 6c1e 383e 0f36 9b3e eb2b 0f3e 729b 863c
00000140: 3d19 17bd 8ab8 abbc 71a0 083d 72bb c53c
00000150: 509a 4b3c abfb 0d3d f060 223b 0524 133d
00000160: 0f5b 92bc d2cf 6cbc 4b11 1c3e e10a 153e
00000170: 4228 3a3c 58ce 8b3e 9d90 143e 5d0d 623e
00000180: 7d91 e53d e537 a33c 89ff a43d 03c1 343e
00000190: 1ddd dfbb 6bf8 0f3d 7f50 c03e a870 633e
000001a0: bfe8 d3bd a3e3 c93b a7fb af3b aabf ffbc
000001b0: f0b7 c53c 959b 01bc b4ea 083c a8e0 cbbc
000001c0: 80d6 5c3c 5e4a fcbc dbde c73c 508d a2ba
000001d0: 39de ebbd 9cbb 4abe 70d3 9a3d 58f3 353e
000001e0: 58c4 1b3e 2073 a5bd 7964 48bd ba1d ed3d
000001f0: e4c7 07bd e424 20be 5936 293e e4ce ef3d
00000200: 5359 223e 6772 003e f127 453d b484 523e
00000210: f990 77bc 13eb 90be 05dd 82be f269 80be
00000220: d4e6 09be f974 c1bd eb2d 653d 40cb a13c
00000230: 00e1 b2b9 1283 b23c b766 67bb 3f24 83bd
00000240: 6bbd cdbd 6cec 33be dcd8 3cbe 4684 3c3e
00000250: d85d 6c3d eac9 443b 9c50 203e e66a 143e
00000260: 2230 e03a 474c 1cbd 9d78 313d 347a b13c
00000270: a14a 163e 8c12 063e 085c d5bd 4cfe c3bc
00000280: 9a71 29be 65e8 acbe 0765 2ebe e68d 09be
00000290: 9c23 9dbd f1d0 973c 6300 b73d e5af 26bd
000002a0: f069 313b aea5 4fbc 0d8a 9c3c 86e0 5b3d
000002b0: 70b8 13be 0831 bcbe 8168 86be 6875 83bc
000002c0: 1810 a4bb eb97 a03d 9bf9 1b3e ddb7 1c3e
000002d0: f685 6f3b ac96 99bd 4eeb dfbb f947 3abc
000002e0: 91de 17be ebc9 52bd 6d39 29be def2 1ebd
000002f0: 5b2d 32be 411b e8bd 7f2b a0bc aa83 803d
00000300: 44a6 aebd f98d 63bd d8b7 873d 26f1 2b3e
00000310: fc43 9cbc 1c8c 5e3b aea2 58bc a517 f8bd
00000320: 2636 9fbe a291 6dbe b389 5cbe f98f 8dbd
00000330: 5c80 463e 6073 0b3e 30b1 ff3d 4b55 7abb
00000340: 5e4a 27be 7ce4 80be e14e 21bd 6293 13be
00000350: bf48 0cbe 2706 57be 4736 e8bd 01e3 f7bd
00000360: 72b7 95bd 754a c5bc 10bb c2bc a261 9abd
00000370: 659a 09be 187e 29be 3953 143b 55cf 403e
00000380: e003 fa3a bfcb 4fbd 12c7 733c 837a 8ebe
00000390: d66c 6cbe 66f1 71bd e6a3 cbbd d7ed a93c
000003a0: e10c 273e cf08 e73d 617a d63c 2a7c d7bc
000003b0: d34f 38be ab06 eebd 487e 01bd d221 8bbd
000003c0: 4f06 20bd bcdf 12be ef56 0abe 453b 82be
000003d0: 929c f93c 12c8 983c 5772 e9bd 06e8 4dbe
000003e0: 7480 6bbe 1d89 17be ccb7 50bd 0d9d 353d
000003f0: c01e e13a eeb7 b3bc 1803 553e fb01 f1bd
-0.010459797 0.021835934 0.0068594255 -0.024369135 0.03183074 -0.027487084 -0.024331622 0.009031739
0.0053443685 0.026770342 -0.016942617 0.027008343 0.010413304 -0.035434913 0.013371225 -0.00114768
-0.02732145 -0.030447949 0.019861005 0.023668941 0.029062014 -0.011153737 0.019784395 -0.003690388
0.027525205 -0.030531991 -0.03567941 0.00073231384 0.024676085 -0.034305718 0.014685571 -0.022402067
-0.0055666897 0.018983146 0.11417659 0.093233705 0.15431492 0.16613719 0.20760722 0.33911914
0.18036757 0.21117973 -0.08017339 -0.095859826 -0.08220696 0.06785581 0.14191543 0.17263637
0.18202648 0.17367357 0.024860434 0.012495868 -0.0035744868 -0.027223036 0.013701953 0.001918178
-0.0058410726 0.028885711 0.025869232 -0.003811121 0.07394278 0.1295463 0.1642162 0.23499653
0.17220493 0.19270504 0.09291251 0.07594721 -0.10136342 -0.15359077 -0.06547076 0.09878256
0.106714725 0.18326592 0.20260642 0.22903116 0.17980355 0.3031468 0.13981597 0.016431544
-0.036889303 -0.020962019 0.033356134 0.024137232 0.012426928 0.034663837 0.0024777018 0.035923023
-0.017865686 -0.014453845 0.15240972 0.14554931 0.011362137 0.27305865 0.1450829 0.2207541
0.1120939 0.019924114 0.08056552 0.17651753 -0.0068317787 0.03514902 0.37561414 0.22210944
-0.10347127 0.0061611696 0.0053705755 -0.031219322 0.02413556 -0.007910629 0.008356739 -0.024887398
0.013478875 -0.03079718 0.024398258 -0.0012401734 -0.11516995 -0.1979813 0.0755986 0.1776861
0.15211618 -0.08078599 -0.048923943 0.115779355 -0.033149615 -0.15639073 0.16524638 0.11709383
0.15854387 0.12543641 0.048133794 0.20558435 -0.015110248 -0.28304347 -0.2555925 -0.2508083
-0.1346696 -0.09446139 0.055951994 0.019750237 -0.00034118444 0.021791015 -0.0035309026 -0.06403398
-0.10045894 -0.17570657 -0.184421 0.18409833 0.057706684 0.0030027577 0.1565575 0.14493904
0.0017104188 -0.03815868 0.043327916 0.021664716 0.14676906 0.13093013 -0.10417944 -0.02392497
-0.16547242 -0.33771053 -0.17030726 -0.13433036 -0.076728076 0.018532248 0.08935621 -0.04069509
0.00270712 -0.012673778 0.019108796 0.05368092 -0.14425826 -0.36756158 -0.26251605 -0.016047195
-0.0050068013 0.07841476 0.15231936 0.15304513 0.0036548353 -0.074994415 -0.0068334704 -0.011369699
-0.14830996 -0.051462095 -0.16525812 -0.038805835 -0.17400114 -0.11333323 -0.01955199 0.06275113
-0.085278064 -0.055555318 0.06626862 0.1679121 -0.019075386 0.0033958023 -0.01322238 -0.12113885
-0.31096 -0.23200086 -0.21536903 -0.06912226 0.19384903 0.13618231 0.12484968 -0.0038197811
-0.16336963 -0.2517432 -0.039381865 -0.14411691 -0.13699625 -0.2099844 -0.113384776 -0.121038444
-0.0731038 -0.024083355 -0.023770839 -0.07538153 -0.13437803 -0.16552007 0.0022632612 0.18829091
0.0019074641 -0.050731417 0.014879005 -0.27827844 -0.23088393 -0.059068106 -0.099433705 0.020743294
0.16313507 0.11280977 0.026181402 -0.026304323 -0.179992 -0.116223656 -0.03161457 -0.0679356
-0.039068516 -0.1434316 -0.13509725 -0.25435844 0.030470166 0.018650088 -0.11398762 -0.20108041
-0.2299822 -0.14798398 -0.050956532 0.04433923 0.0017175302 -0.02193829 0.20801961 -0.11767956

fc1.bias f4 [256]
00000000: 033b 45be e9cc 4b3d 628e aa38 d13c 573e
00000010: 5cd1 1cbd ecce 23bd f1a0 ce3c 1be3 34bc
00000020: 9bba 17be 10f8 cf3d 53a5 71bd 5e17 45bc
00000030: a8d8 793d 011e 4abd 2c63 e0bc e1b6 09be
00000040: 3e19 c03b 9e63 6ebe 31b6 f83d 3543 9f3e
00000050: c4e3 203c 8fd7 433d 9582 03be 5693 12bd
00000060: 9d94 8dbe 90e6 88be da3c 97be 33f9 2dbe
00000070: 3d24 f1bd edb4 d8bd cc3a 71be eda1 58bc
00000080: fc87 003e 1416 8abe 839a ab3d 9121 1bbe
00000090: cdfe f4bd 3702 593d cca3 2dbd b1df 463e
000000a0: 3104 cc3a 55d5 1f3c 75c3 563d a571 9dbd
000000b0: 8b98 0cbe c43c 49be 5ed9 113d 523e 3d3d
000000c0: 18a5 603e fe1a 0ebe 3cd4 51be db7d f83d
000000d0: e66f 74bc 5218 21be 69de 0d3e 2bb9 2cbe
000000e0: e01e 4abd fa25 10be c330 cebd 6823 4cbc
000000f0: f880 27be 2557 2fbd 3cfb 033d 1af6 c2bd
00000100: 7f47 acbe 94e6 0b3e 668a c73d 5470 433e
00000110: 483e 8bbd 49fe fdbc bb61 613d 4bd2 fb3d
00000120: f14d e8bc 6913 473d 7b64 8f3d 964a 97bc
00000130: f156 523e c862 0ebe 1d5f 65be 6544 95be
00000140: 477b 303e b509 09be e817 5cbe d655 be3c
00000150: 87e8 643e 8cbb a93d 2436 81be b87e b43d
00000160: 1945 62be 44f7 1c3e 7cfa b8bd 12ac 5cbe
00000170: 2f4c b3bd 5c3b fabd e6af 243c fc1c 6fbe
00000180: 3c98 823b fed6 753d f6ce e0bd 3123 ad3c
00000190: e8ab 9b39 816d 6abd 074b 6ebe 02a2 84be
000001a0: b623 40bb 7479 9abe 791c 25be 1d7d 66bc
000001b0: 9b65 28be 5e67 39bd 5054 72be 71c7 2ebd
000001c0: 22cb 88be 3bf1 013e 6681 273e bfdd 50bd
000001d0: b161 debd 8b48 343c 1246 33be 2cd3 21be
000001e0: 5425 1fbe e968 b8bd b77e 10bd 2073 653d
000001f0: 66a5 11be 4597 6e3e dfb7 a5be 0f3e bd3c
00000200: b040 653c 7440 093c 3c43 dfbd 5fba 973d
00000210: 3292 5cbe cfee 15be 74c2 04bd a397 3bbd
00000220: bac7 1fbd 29ba 7f3d da1b 123e a080 cf3c
00000230: 5ac9 48bd dbb7 9abc ea2a 9fbd 540f 50bd
00000240: 5561 03bc fbcb dc3c 322f 843c cf99 95bd
00000250: 3695 fabd 1497 7dbe f731 26be 4597 98bd
00000260: 288f a4bd f6f1 1abc b4af 64be af40 b7bd
00000270: 85ba a1be 5c48 a23e 17e9 943d 1a4a b53d
00000280: a486 60bb b78a 49be 9dd6 50bd 6f06 09be
00000290: 1aae 0dbc 1263 9bbe 0381 933d c4fa 293d
000002a0: 55e2 54bd 397f a3bd ade5 58be 16f9 7abd
000002b0: e994 ca3d 92f3 cdbc 7a89 e9bd 68bf 0bbe
000002c0: d02b 143e 4142 67be ebc9 a93d 7acf 87bc
000002d0: 2c63 d43d dd63 33be b8d6 7f3e 4cf7 023b
000002e0: 5f87 9bbc 8f4b 17be 4d20 b33c 8c21 51bd
000002f0: c6c8 ecbc 0e72 2dbe 66a2 7c3e 6594 2a3d
00000300: 5f64 84be eba3 ad3d d916 e53c 9ec3 90bd
00000310: b2ca 8c3d cff0 0cbe 7437 543e 30f0 ccbb
00000320: 072e 70be 4485 c3bd 4e17 15be d959 bdbd
00000330: e348 ffbb c7da 7fbd 03fa febd a005 99bd
00000340: 7769 803b 9843 5c3e e8cb 06be 8b12 14be
00000350: 3d12 60be 9eb6 42be 0311 403e bc1c abbd
00000360: 4739 7bbe 2228 66be 01b9 343e 34b7 533d
00000370: 6972 4e3d c50f 58be 9f6c 4ebc 0951 583c
00000380: c8a9 8bbe 1569 623d 612c 41be 3c19 5abe
00000390: a278 08be 7449 3ebe 78f5 343d 933b 84bc
000003a0: 4fb3 883e 4034 65bc cd40 15bd 017f a6bd
000003b0: ceed 85bc 4574 a3bd fcab f4bc 644c 6c3c
000003c0: 40fd 87be b532 0c3c 0a30 e83d 7722 233e
000003d0: 9165 2bbe 95b6 42be e57d 253a b979 533d
000003e0: d672 473c e7cf f5bd ea22 21be 3483 debb
000003f0: c66f 3d3e 8147 923d 3029 5f3d d5ce 0c3e
-0.19260792 0.049755964 8.1327526e-05 0.21019293 -0.0382856 -0.039992258 0.025223227 -0.011040474
-0.14817278 0.10154736 -0.058995556 -0.012029497 0.060997635 -0.04934502 -0.027391039 -0.13448669
0.005862384 -0.23280188 0.12144125 0.31105962 0.009819929 0.047812995 -0.12842782 -0.03578504
-0.27652445 -0.26738405 -0.29538614 -0.16989593 -0.1177449 -0.10581384 -0.23557585 -0.0132222
0.12551874 -0.2696997 0.0837908 -0.15149523 -0.11962662 0.052980628 -0.042392537 0.19421269
0.0015565214 0.009755452 0.052432496 -0.076876916 -0.13730066 -0.19652086 0.035607688 0.04620201
0.21937978 -0.13877484 -0.20491117 0.1213338 -0.014919257 -0.15731934 0.13854374 -0.16867511
-0.04934585 -0.14076987 -0.10067894 -0.012459613 -0.16357791 -0.042807717 0.032222018 -0.095195964
-0.33648297 0.13662177 0.09743194 0.19085819 -0.067989886 -0.031005042 0.055024844 0.122959696
-0.028357478 0.048602495 0.07001587 -0.018468183 0.20540978 -0.1390487 -0.22399564 -0.29153743
0.17234527 -0.13382609 -0.21493495 0.02323429 0.22354327 0.08287725 -0.2523662 0.08813232
-0.22096671 0.153287 -0.09032151 -0.21550015 -0.08754765 -0.12218353 0.010051703 -0.233509
0.003985433 0.060019486 -0.10976975 0.021134945 0.00029691984 -0.057233337 -0.23270808 -0.25904852
-0.002931816 -0.30170786 -0.16124143 -0.014067915 -0.1644501 -0.045264594 -0.23664975 -0.04267067
-0.26717478 0.12689678 0.16357955 -0.050992724 -0.10858477 0.011003624 -0.17507198 -0.15803212
-0.15541583 -0.09004385 -0.035277095 0.056017995 -0.14223251 0.23299892 -0.32366845 0.02310088
0.0139924735 0.008377183 -0.10901496 0.07408594 -0.21540144 -0.1464188 -0.032412007 -0.04579891
-0.039008833 0.062433396 0.14268437 0.025329888 -0.04902015 -0.018886497 -0.07771857 -0.050795868
-0.008018811 0.026952734 0.016135786 -0.07304727 -0.12235491 -0.24764663 -0.16229998 -0.074507274
-0.080351174 -0.009457102 -0.2233265 -0.08947884 -0.31587616 0.3169583 0.07271021 0.088520244
-0.003425994 -0.19681822 -0.05098592 -0.1338136 -0.008647466 -0.30349022 0.072023414 0.041498914
-0.05197366 -0.0798325 -0.21181364 -0.061272703 0.098916836 -0.025140557 -0.11403175 -0.13647234
0.14469838 -0.22583868 0.08290466 -0.016578425 0.10370478 -0.17518564 0.24984252 0.0019983826
-0.018985448 -0.14774917 0.021865988 -0.051057383 -0.02890433 -0.1693804 0.24671325 0.041645426
-0.25857827 0.084785305 0.027964996 -0.07068561 0.068745986 -0.13763736 0.20724279 -0.0062542185
-0.23455058 -0.09546903 -0.14559671 -0.09245653 -0.007790671 -0.0624645 -0.1245003 -0.07471776
0.0039188224 0.2151016 -0.13163722 -0.14460199 -0.21881957 -0.19014975 0.1875649 -0.0835509
-0.24533568 -0.22476247 0.17648698 0.051688388 0.05040208 -0.21099766 -0.0125991395 0.013202914
-0.2727797 0.055275995 -0.18864585 -0.21298689 -0.13327268 -0.18582708 0.04417941 -0.016141688
0.26699302 -0.013989508 -0.036438752 -0.08129693 -0.016348746 -0.07981161 -0.029867165 0.01442251
-0.26560402 0.008557011 0.11337288 0.15931116 -0.16737963 -0.19014962 0.000631301 0.051629756
0.012173375 -0.12002545 -0.15735975 -0.006790543 0.1849967 0.071425445 0.05448264 0.13750775

fc2.weight f4 [128, 256]
00000000: 7a4c b5bd 8545 0c3e 7f76 973e 3df4 f8bc
00000010: 4fa3 b6bd 8146 bb3e 1bda 173e 496c 6fbe
00000020: 5a26 74bd f5bb 8e3e a292 6b3e 4b8c 3cbe
00000030: a763 f33d 3cad 4cbc 24f6 5fbd 0fdd 8bbe
00000040: 8125 f0ba 16e6 bdbe 6d94 f1bd 2800 df3d
00000050: 0a48 db3d b165 ce3d 7aa4 463e f8b4 33bd
00000060: 35eb 67be 2289 62be 0efd 5dbe 1964 f83c
00000070: 34f2 79be f002 293e 7f50 0fbc 78bc d93c
00000080: b370 c93d 025f f03d 8299 15be 6cea 753d
00000090: d29c dd3d 817b 1abe 1a04 59be 1ecf 043e
000000a0: 4663 d13c 5427 913d 36e1 d13d 15aa d9be
000000b0: bf0e a63c e3e6 b2be a37d 063e 41f2 7a3d
000000c0: 8c5a 9abc e457 b43e 73b2 4dbe 578d 45bd
000000d0: 9209 783c 015c 1f3a 7fc4 91be 9dbf 75bd
000000e0: a62d 2b3d 8931 a4bd 01f1 0d3d 2745 c53d
000000f0: 7e38 173e 4ebf efbe 66f4 883e d6f0 91bb
00000100: f5e6 593d cea3 adbd a1e8 7a3e ea13 933d
00000110: d63e 31be f4bc 8abc df56 ed3d 177e bbbd
00000120: a2bc 47be 6699 85be 477d c13e 26ff 72bd
00000130: c2e2 713d 9085 583c bc73 8fbe ad71 c4be
00000140: 6551 32be fa20 99bd 6c47 89bd 9d93 6b3e
00000150: be15 3abd 1ce7 5a3d cb43 7fbe 0185 d73d
00000160: 21be a83b 1648 08bd d915 093d ca57 8e3d
00000170: 340c f4bd e0dc 70be 3999 f63d 8391 30be
00000180: 3a42 70be aaeb 25be 90e5 c33d c3f8 913e
00000190: f0c1 00bd 4e92 3bbd 968a 38be 88c4 3cbe
000001a0: 7f9c 32bd 968b a6be 1cdc c93d 91d6 b8bd
000001b0: 4f94 a1be 92d9 84be 0a85 babc 75d0 ad3c
000001c0: e0df be3d 95cb 863d 434f 203e ac1c 3a3e
000001d0: cb12 7a3c c614 41bd b23d f83c ad2a e838
000001e0: 46e2 4fbe ea45 f4be 87fc 033e 9cf0 d6bb
000001f0: 48cb 0dbe 4ceb a2bc dadc 32bd 9311 e2bd
00000200: fc43 c23d a0e6 d63b 2863 c1be c25d 273e
00000210: 3635 52be bd7e 603e 935e ca3b b59b c0be
00000220: a0cb 45be ee7f 0f3e 3060 c63e 0f06 15bd
00000230: f770 893e cbba dabd 8b40 e83d f5a5 9ebe
00000240: 172d f3be bc33 4e3c f82e 49be 28a2 413c
00000250: 5515 17bd 88d4 2bbe 85dc 80bd 58fe 4a3d
00000260: e89f bebd 5138 4dbe a091 b9bd 36f8 4fbd
00000270: f5ee f4bb dd4a 6fbe d2c8 013c e0d6 ac3d
00000280: 004f 97bd 0d6d 18be 4962 803d 9202 febd
00000290: e3ad 95be 2ef8 c4be b723 493e c118 00bd
000002a0: fce2 43bd b25e 39be d8e9 913d 597e 2ebe
000002b0: 32ab 4dbd 29c3 4b3d b389 23be 6393 76bd
000002c0: 55ea 1b3d 4689 2bbe 41ba 113e 585c 08bf
000002d0: bf22 4bbd 4218 b5bd 9064 ce3e b8e5 17bd
000002e0: e113 323d 3eaa 85be 8e29 69bd 8cc0 0fbe
000002f0: f928 903a 11b0 eb3d 99bd 383e 5004 f3bd
00000300: 683e 89be 23cd 0b3e e219 f3bb fc70 30be
00000310: 7e54 02bf 7a37 0c3e 196e e0bc d814 cbbc
00000320: 961a 8dbd 9416 0ebe bb9a 463e 19f5 3d3e
00000330: 4785 8f3e 80a1 f0bc 926f 8cbe 3c9a 143d
00000340: 46ae 893e 0ebe c2bd 54af 6b3d 9763 5fbe
00000350: 4a96 aabd 4eb4 353e daca fe3d 88f4 e33d
00000360: a8e7 9abd 5693 a3be c54a c7bd d51c a63c
00000370: 30e3 c93c d473 fc3d 4dc1 933d c598 983d
00000380: 8395 b7be 8e82 023e 2a16 81be e3f8 d4bd
00000390: 35b8 36be 362b 8dbc bfb6 0c3e 8808 79bd
000003a0: a7a3 713e eb9d 4fbe d86e 69bd c7a1 553e
000003b0: fe25 5dbd 4a34 683c 0794 9e3c a92e 883d
000003c0: 7865 4ebe f148 59be d50c 8f3d 3e04 5b3e
000003d0: aebd 33be 9f9b 2c3e 7d5b e23d c1e6 013e
000003e0: 4c03 4fbe c535 613d d1a6 afbe 11d3 8fbe
000003f0: cf5c c03e e5a1 4e3d 87b9 113e 1587 7b3e
-0.08852477 0.13698395 0.29582593 -0.0303899 -0.089178674 0.36577228 0.14829294 -0.23381151
-0.059606887 0.27877775 0.23005155 -0.18412893 0.118842416 -0.012492474 -0.054678097 -0.27317092
-0.0018321724 -0.37089604 -0.11795888 0.10888702 0.107071 0.1007799 0.1939868 -0.043873757
-0.22648318 -0.22122625 -0.21678564 0.030321168 -0.244088 0.16505027 -0.008747219 0.026579127
0.09835949 0.11736871 -0.1460934 0.060038015 0.10820927 -0.15086176 -0.21192971 0.12969634
0.025560033 0.07087579 0.10248034 -0.42512575 0.020270703 -0.34941778 0.13133864 0.061266188
-0.018842004 0.35223305 -0.20087604 -0.048230495 0.0151390005 0.00060790783 -0.28470227 -0.05999719
0.04179158 -0.080172606 0.034653667 0.096323304 0.14767644 -0.4682564 0.2674896 -0.0044537587
0.053198773 -0.08478509 0.24502803 0.07181533 -0.17309126 -0.016935803 0.11588835 -0.09154909
-0.19505551 -0.26093596 0.37790892 -0.05932536 0.059054144 0.0132154375 -0.28017986 -0.38367978
-0.17413862 -0.07476993 -0.06703076 0.23005529 -0.04543089 0.05344306 -0.24928205 0.10523415
0.0051496183 -0.03327187 0.0334681 0.06950338 -0.1191639 -0.23521757 0.12040944 -0.17243008
-0.23462763 -0.1620318 0.0956527 0.28510103 -0.031434953 -0.045793824 -0.18021616 -0.18434346
-0.043606278 -0.3252837 0.09856436 -0.090253 -0.31558463 -0.25947243 -0.022768516 0.021217564
0.093200445 0.06581799 0.15655236 0.18175 0.01526327 -0.04713895 0.030302856 0.00011070571
-0.2030116 -0.4770959 0.128893 -0.0065594446 -0.13847077 -0.019887589 -0.04366765 -0.11038508
0.09485623 0.0065582544 -0.37770963 0.1634436 -0.20528111 0.21923347 0.006175825 -0.37618795
-0.19315958 0.14013645 0.3874526 -0.03638273 0.26843998 -0.10680159 0.113404356 -0.3098599
-0.47495338 0.012585577 -0.19646823 0.011818446 -0.03688558 -0.16780293 -0.06292061 0.049558967
-0.093078434 -0.20041014 -0.09060979 -0.05077382 -0.007474775 -0.23368402 0.007921414 0.08439422
-0.07388115 -0.1488535 0.062687464 -0.12402834 -0.29234228 -0.38470596 0.1964253 -0.031273607
-0.04782389 -0.1810253 0.0712468 -0.17040385 -0.050212093 0.049746666 -0.15970497 -0.060199153
0.038065273 -0.16751584 0.14231206 -0.53265905 -0.049593683 -0.088425174 0.40311098 -0.03708431
0.04347599 -0.26106447 -0.056924395 -0.14038295 0.0010998539 0.115081914 0.18041076 -0.11866057
-0.26805425 0.13652472 -0.007418857 -0.172306 -0.50910175 0.13693038 -0.027396249 -0.024790213
-0.068898365 -0.138758 0.19394962 0.18550529 0.2803137 -0.029373884 -0.2742887 0.0362799
0.26890773 -0.09508906 0.057540253 -0.21815334 -0.083294466 0.17744562 0.124410346 0.11130625
-0.07563716 -0.31948346 -0.09731058 0.02027742 0.024644464 0.1232678 0.072146036 0.074510135
-0.35856256 0.12745115 -0.25212222 -0.10399034 -0.17843707 -0.017232519 0.13741587 -0.06079915
0.23597585 -0.20275085 -0.056990474 0.20862494 -0.05399131 0.014172623 0.019357694 0.06649525
-0.20155895 -0.21219231 0.069848694 0.21388337 -0.17552826 0.1685624 0.11052606 0.12685682
-0.20216101 0.05498292 -0.34306958 -0.28090718 0.37570807 0.050447363 0.1423093 0.24563248

fc2.bias f4 [128]
00000000: b132 45be dd29 1d3e 2883 fabd 7a08 a73e
00000010: 49d4 f8bd 3299 c83d 0b06 babd c431 393e
00000020: 379d 76be 7bd7 383e 282e 473d 3b79 a3bd
00000030: 690a dd3d 103e bd3d 945a e1bd 0e4d 85be
00000040: 7895 983d 99e4 6e3e 7bc0 1c3d fd38 8f3e
00000050: cc84 793e 487e da3e 21b5 a3be 2b97 953b
00000060: 8015 543e 742c 983e 8e43 72be b7a6 a4bd
00000070: 5718 b8bb ff70 bfbd a278 84be 7391 913d
00000080: a4c1 9ebe 0b71 87be 124d 953e 9c8b 8d3d
00000090: 071d 02be 0a5a 9b3e 3467 603e 0241 483c
000000a0: 7c64 cf3d 614d 6abe 2547 163e 5085 72bd
000000b0: a3b0 b43d 1aab 35be 51e1 a73d b5a5 c43c
000000c0: b50d 6c3d 28de 303e d9c3 09be 6602 f0bd
000000d0: 4baf 403d 5ab0 f23d 2569 3e3d a653 043e
000000e0: 6c58 4d3e 3a80 883e be23 82bc f2f9 713e
000000f0: e4c9 38be 059e 153d 52d2 2cbe 1286 8e3e
00000100: 6692 2dbd 9085 92bc f0ff a6bd 27a5 efbd
00000110: 3f99 ff3d d8ab babd 88f8 35be 790d 753e
00000120: 78e8 993d 1370 153e c912 123d ac37 d93e
00000130: a41b 8dbe 58e1 58bd a2f9 623e 0f58 a4be
00000140: ddd0 923d 97e1 863e 7563 443e 9092 00be
00000150: c3d6 ef3c 6f5e c63c e8fe f5bd bdf0 de3d
00000160: d296 babd 3a1c 423d 2c5b 9a3d f2b3 1f3e
00000170: 24c3 303e 57d0 90bd bd8d 85bd c383 c53d
00000180: f716 3d3e e7ca 92be 0c7e d4bc 4490 2abe
00000190: 84e0 17be 8b31 8ebe 3a3c fd3c d86a b73d
000001a0: 9f15 5d3e 6dbe 26be 2667 913e ecc4 d0bd
000001b0: cd84 973c 1c09 1a3e 2ff7 4ebd 845f a7be
000001c0: 4083 6abe b7dd a63d ac92 d1bc f854 883d
000001d0: a502 bbbc 50c6 85be 4a84 5a3d c47e 6abe
000001e0: d7ec 02be 187c 8fbe 8715 34be f7b6 b73c
000001f0: 6a5c d8bd 78a9 6b3e 9cce b2be 2f55 893d
-0.19257618 0.15348001 -0.12232047 0.32623655 -0.12149865 0.09794845 -0.09083184 0.1808539
-0.2408341 0.1805095 0.048628002 -0.07982107 0.10793001 0.09240353 -0.110036045 -0.2603535
0.07450384 0.2332939 0.0382695 0.27973166 0.24367064 0.4267447 -0.31974128 0.0045651398
0.20711327 0.29721415 -0.23658583 -0.08039611 -0.005618136 -0.09347724 -0.25873286 0.0710782
-0.3100711 -0.26453432 0.29160362 0.06911394 -0.12706386 0.30342132 0.21914369 0.01222253
0.10126588 -0.2288108 0.14675577 -0.059209168 0.08822753 -0.17741051 0.081972726 0.024004797
0.05763026 0.17272246 -0.13453616 -0.117192075 0.047042172 0.11850043 0.046486992 0.12922534
0.20053262 0.2666033 -0.015886184 0.23630503 -0.18045765 0.036527652 -0.16877106 0.27836663
-0.042375945 -0.017885953 -0.08154285 -0.11701422 0.12480401 -0.09114808 -0.17770588 0.2393092
0.07515043 0.14593534 0.035662446 0.42425287 -0.2756015 -0.05294928 0.2216554 -0.32098433
0.07168744 0.26343986 0.19178565 -0.12555909 0.029277211 0.024214951 -0.1201151 0.10885761
-0.09110798 0.0473902 0.07536921 0.15595987 0.1726194 -0.07070988 -0.06521175 0.09644272
0.18465792 -0.28670427 -0.02593901 -0.16656595 -0.1483174 -0.27772173 0.030912507 0.08955926
0.21590279 -0.16283579 0.2839901 -0.1019381 0.018495942 0.15042537 -0.0505287 -0.3269006
-0.2290163 0.081477575 -0.025582634 0.066568315 -0.02282841 -0.26127863 0.053348817 -0.2289992
-0.1278566 -0.28024364 -0.17586337 0.022426112 -0.105645016 0.23013866 -0.34923255 0.067057006

fc3.weight f4 [10, 128]
00000000: 02c4 aabe 6bf7 34be 4eb8 21bd cb8a 0f3e
00000010: 63d9 bcbe c7b9 1ebf fca7 883d 33a4 563e
00000020: 9663 4cbe af82 9c3d 91e9 f43c 604b c53c
00000030: 5b9d 1f3e bdc1 fa3e 1242 9abe 891a 80be
00000040: 323c 8ebe 39b8 143d 37bf acbe b82f 0a3e
00000050: 825a 0bbe 9221 ea3d a858 95be 509a dbbe
00000060: 0bca b13d 3e2b 963e d6eb 923d a333 483e
00000070: 324e 0c3e 30b9 4dbe 299b d6be 92cf 90bd
00000080: 5f93 213e ee2c a63d 1054 063e 6152 6dbe
00000090: 507c a3be da8f d6bd 6c78 e63d aafe 1a3e
000000a0: 8bba 8a3d 94af 663e e5f9 9abe a81a 26be
000000b0: 9719 2c3e da2b 89be 584c ecbe b77c 243b
000000c0: 5606 d8be 6cfb 103e fd7c fdbe 094c 293e
000000d0: 28f0 493d d1d3 6a3d 5153 47bc 0a1b 98bd
000000e0: 22e7 913d 5d2b 8dbd a06a 063e 3873 5bbe
000000f0: 8080 353e 8524 01be e601 ccbe d3ae a73c
00000100: 95c0 3f3d 7550 b6be fbbf 4bbe aa00 5bbe
00000110: b3c9 893b 22a2 8fbe cc8b f43d 3b48 96bd
00000120: 38bc ed3c fb03 8f3d 6a78 3dbe 0295 133e
00000130: f311 543d 7e37 d5be a58f e0bd 89fa 0dbe
00000140: d26a 9dbe a2ce 403d f3a2 51bd 7cb5 193c
00000150: a427 0e3e 5862 883d 82b3 c13d 20c9 4d3d
00000160: d125 52be e9c3 d3be d504 45be e226 83be
00000170: e634 ff3d 6b04 9f3d d220 443e 7078 1c3e
00000180: ed47 74be de95 cabe bd5d bd3d 4e82 fc3d
00000190: 330d d4be 0d52 a73d 7569 8b3d 4e29 903e
000001a0: 5fc2 b7be 8583 9bbd d386 dc3d d2be 0fbf
000001b0: 1589 afbd 6f3b bb3d f4a8 a7bd ffe1 f9bd
000001c0: 2a22 fe3d 988a bbbe 37fe 6b3d 113f 203d
000001d0: 7a71 cebe 6fde b0be 9fed d2bd 3861 9fbd
000001e0: f8f8 0b3e b864 08be 89a2 3fbe 5798 5ebe
000001f0: 0669 ee3b ce56 2cbe e4f0 acbe da4a e3be
00000200: 85f6 8ebe 444d 153d e84f 29be 0560 e1be
00000210: a83a 8a3e d666 3dbc d24c 1cbe cfc8 ccbc
00000220: 0d23 cdbe 3130 e3be ff34 1c3d f161 9ebe
00000230: a119 efbe e092 b8be 08ea 393e c277 cc3d
00000240: 5bd1 a8bd e1c4 cdbe 4cd8 adbe 287c bdbe
00000250: 06a0 3c3e e37b 883e e898 2f3e 8cae a7be
00000260: c53c 64be ae94 07bd 460a a8bc bd87 d7be
00000270: 404c 54be c9ea f3bd 4829 333e 4e97 e9bc
00000280: 1cfa 85bb 1404 633c d2cf b6be 9520 753e
00000290: 8a3b 033e 08fc afbd 90e6 cdbd 65dc 70be
000002a0: 949e c3be 6057 31be ebc0 503e 1967 5dbe
000002b0: a045 25bd 07ed 5d3e 7194 5bbd cae7 e53d
000002c0: f0d0 063e b33c bdbd a571 c83d 449a 8abe
000002d0: c540 b3be 917f 82bd 5cba 3a3e d85c b0be
000002e0: 9fcc f5be 2879 5c3e 8b16 93be 96fd aebe
000002f0: 67d3 93be ac18 443e c47b 833d 5fec 17bf
00000300: 6885 64be 8acd 653e 55b8 3e3e fa29 983d
00000310: 3533 513e cd24 9a3e ee06 86be 8bc1 fdbe
00000320: 4364 dfbe 7a96 89be abb9 9cbe 9081 6b3d
00000330: d21a 48be dc5b 81be e345 d43c b972 1a3e
00000340: 7da7 e93d 7f91 cd3d 67b1 9ebe 202c 363e
00000350: fa20 bbbe 78bd 58be 7315 e6be 2226 a03d
00000360: 96cd b33d c997 dcbd cddf a1be 6a28 5e3d
00000370: 24ed 8fbe f63c 37be f6d7 31be d256 d53d
00000380: 4136 6abe 5616 c33d 30a0 fcbe 4508 83bd
00000390: ed80 3f3e 1e28 c7bd 4d14 47be 2c0d 7bbe
000003a0: 0873 7c3d ce1e 89be ac37 efbe f002 d53d
000003b0: c89a d8bd bd7f c0be aeed 82be e02a 313e
000003c0: 721e bdbe d4c4 073e cfdb 61be 0f61 c8be
000003d0: 67f4 b8be 5abd e3bc 086a a8be 4428 3a3e
000003e0: 90f6 7fbe 52bb 9bbe c55d a2be 2e21 cebe
000003f0: 09f3 1f3e ba52 6bbc a765 353e 82aa fa3d
-0.33352667 -0.17672507 -0.039482407 0.14017789 -0.36884603 -0.62002224 0.066726655 0.20961075
-0.19959864 0.076421134 0.02989653 0.024083793 0.1558737 0.48975936 -0.30128533 -0.25020245
-0.277803 0.0363085 -0.33739635 0.13494766 -0.13608745 0.11432184 -0.29169202 -0.4289117
0.08681115 0.29329866 0.071738884 0.19550948 0.13701704 -0.20090175 -0.41915253 -0.07070841
0.15778874 0.081140384 0.13118005 -0.23175956 -0.3193078 -0.10476656 0.112534374 0.15136209
0.067738615 0.22527915 -0.3026878 -0.16221106 0.16806637 -0.2679127 -0.46151996 0.002509875
-0.42192334 0.1415841 -0.4950942 0.16532911 0.049301296 0.05733091 -0.01216586 -0.07427032
0.07124163 -0.068930365 0.13126612 -0.21430671 0.177248 -0.12611587 -0.39845198 0.020469105
0.04681452 -0.3560826 -0.19897453 -0.21386972 0.0042049526 -0.28053385 0.11940727 -0.073379956
0.029020414 0.06983181 -0.18502966 0.1441231 0.05177493 -0.416439 -0.10964898 -0.13865103
-0.3074556 0.04707206 -0.05118079 0.009381648 0.13882309 0.066593826 0.094580665 0.050240636
-0.20522238 -0.41360405 -0.19240125 -0.25615603 0.124612615 0.077645145 0.19153145 0.15280318
-0.23855563 -0.39567465 0.09246395 0.12329541 -0.4141632 0.08169947 0.06807224 0.28156513
-0.3589048 -0.07593445 0.10767903 -0.56150544 -0.08571068 0.091421954 -0.08186522 -0.122013085
0.1240886 -0.36629176 0.057615485 0.039122645 -0.4032095 -0.34544703 -0.10299229 -0.07782215
0.13669193 -0.13319671 -0.18714346 -0.217378 0.0072757034 -0.16829988 -0.33777535 -0.44393045
-0.27922454 0.03645064 -0.16534388 -0.4401857 0.26997876 -0.0115601625 -0.1526368 -0.024998097
-0.40065804 -0.44372705 0.03813648 -0.30934098 -0.4669924 -0.36049557 0.18155682 0.099837795
-0.082430564 -0.4018927 -0.33954084 -0.37008786 0.18420419 0.26657018 0.17148173 -0.32750356
-0.22288807 -0.033100776 -0.020512711 -0.42095748 -0.20732212 -0.11910016 0.17496216 -0.02851453
-0.0040886533 0.013855953 -0.3570543 0.2393821 0.12815681 -0.08592993 -0.10053742 -0.23521574
-0.38206923 -0.17318487 0.20386092 -0.2162136 -0.040349603 0.2167245 -0.05360836 0.11225851
0.13165641 -0.09240093 0.09787301 -0.2707082 -0.35010353 -0.063719876 0.18235153 -0.34445834
-0.48007676 0.21530592 -0.28728136 -0.34177846 -0.28872225 0.19150037 0.06420091 -0.5934505
-0.22316515 0.22441688 0.18625005 0.074298814 0.2042969 0.30106202 -0.26177162 -0.49561724
-0.4363118 -0.26872617 -0.30610403 0.057496607 -0.19541481 -0.25265396 0.02591223 0.15082826
0.11408899 0.10037517 -0.30994722 0.1779027 -0.36548597 -0.21166027 -0.4493824 0.07819773
0.08779447 -0.10771138 -0.3161606 0.05423776 -0.2811061 -0.17894349 -0.17367539 0.1041695
-0.22872259 0.095257446 -0.49340963 -0.06398062 0.18701525 -0.097244486 -0.19441338 -0.24516743
0.06163314 -0.26781315 -0.46722162 0.10400951 -0.10576397 -0.37597457 -0.2557196 0.17301512
-0.3693729 0.13258678 -0.22056507 -0.3913655 -0.36123964 -0.02780025 -0.32893395 0.18179423
-0.249964 -0.30416352 -0.31712165 -0.4025969 0.15620054 -0.014362985 0.17714559 0.12239553

fc3.bias f4 [10]
00000000: 0d79 053e d29e 363d 302e 33be f655 91bd
00000010: 3b29 b1bd c6ba adbe e74d 87bd df91 73bd
00000020: 3f7d 043f 42f7 523e
0.13034458 0.044585057 -0.17498088 -0.07096474 -0.08650442 -0.3393156 -0.066066556 -0.059465285
0.5175361 0.20602134
